mp2-template/net.model (torch, 396191 bytes, 4 tensors)

weight f4 [32, 3072]
0	0x3c698ce2	0.0142547805
1	0x3c7b41e4	0.015335534
2	0xbb8dda3b	-0.0043289936
3	0x3c7ba7cb	0.015359829
4	0xbb9657ea	-0.004588117
5	0x3b53da31	0.0032326097
6	0xbc17c926	-0.009264266
7	0x3c354fb8	0.01106637
8	0x3c81b5db	0.015833786
9	0xbc3d2b92	-0.0115460325
10	0x3c93b719	0.018031644
11	0x3bb44ae5	0.005502092
12	0x3c788050	0.015167311
13	0x3b7c7d79	0.0038526936
14	0x3c09fb22	0.008421691
15	0xbb222043	-0.0024738468
16	0x3c7041d2	0.01466413
17	0x3b5a5162	0.0033312668
18	0xbbf3ca93	-0.00743992
19	0x3bf24bd6	0.0073942943
20	0xbbd6e1a6	-0.006557661
21	0xba23c434	-0.0006247193
22	0xbbc2b2f0	-0.005941741
23	0x3c4d9b21	0.012549193
24	0xbc6676ba	-0.014066393
25	0xbbf47bca	-0.007461046
26	0xbb8b7f5a	-0.004257125
27	0xbc1d184b	-0.009588311
28	0x3b5130ed	0.0031920031
29	0xbc87203c	-0.016494863
30	0x3c906fba	0.0176314
31	0xbc71af97	-0.014751337
32	0x3c758e2c	0.01498751
33	0x3b553fc2	0.0032539223
34	0xbbea6bb7	-0.007153954
35	0x3c0d29e9	0.008615949
36	0x3abc5ae6	0.0014370352
37	0x3c5f1541	0.013615907
38	0x3a9d0daa	0.0011982222
39	0xbb956c55	-0.0045600333
40	0x3bc6dcd8	0.006068807
41	0xbb3fec97	-0.0029285306
42	0x3c12aa6a	0.008951763
43	0x3c8be725	0.017077992
44	0x3c385bb0	0.011252329
45	0xbbe969ff	-0.0071232314
46	0x3c28576c	0.010274749
47	0x3b3f2ec1	0.0029172155
48	0x3c161914	0.0091612525
49	0xbc2e1631	-0.010625408
50	0xbc8456a0	-0.016154587
51	0xbb80c2b0	-0.0039294586
52	0xbc3ec58c	-0.0116437785
53	0x3c8616e1	0.016368331
54	0x3bb6f7d9	0.005583745
55	0x3bf39022	0.0074329535
56	0x3bb8af35	0.0056361207
57	0xba943d53	-0.001130978
58	0x3c5a0067	0.01330576
59	0xbc4cd88b	-0.0125028
60	0x3aee17c3	0.001816504
61	0xbc3bd713	-0.011464852
62	0x3bc8891c	0.0061198603
63	0xbbaf51c0	-0.0053503215
64	0x3c0e0914	0.008669157
65	0xbb217a8e	-0.0024639699
66	0x3c700dc5	0.01465172
67	0xbc39e34b	-0.011345695
68	0xbc40d39f	-0.011769204
69	0xbc4f1e02	-0.012641432
70	0x3c7e129b	0.015507366
71	0x3c040273	0.008057225
72	0x3c97bbf7	0.018522246
73	0xbc650b80	-0.013979793
74	0xbc929403	-0.017892843
75	0xbc6e7af1	-0.014555679
76	0xbc5d6b2e	-0.013514323
77	0x3bbc47bb	0.0057458556
78	0x3ba7a866	0.00511651
79	0x3c5b890f	0.0133993765
80	0xbc33bd75	-0.010970463
81	0xbc58adaa	-0.0132249985
82	0x3c261558	0.010136925
83	0xbbc52fc4	-0.006017657
84	0x3c4b0727	0.012391842
85	0xbb348816	-0.0027546934
86	0x3c2b3c89	0.010451444
87	0xbc549c6a	-0.012976745
88	0xbbf11f88	-0.007358495
89	0x3bc06907	0.0058718952
90	0x3b5f77d5	0.0034098525
91	0xbb7a16f7	-0.003816066
92	0x3c45fc0f	0.012084021
93	0x3c608d89	0.01370562
94	0xbc4b6ea4	-0.0124165155
95	0xbc06ee89	-0.008235582
96	0x3cb1b181	0.021691086
97	0xbb43e324	-0.0029890025
98	0xbbb02c8f	-0.0053764055
99	0xbc86ee05	-0.016470918
100	0xbc3341a8	-0.010940947
101	0x3afde997	0.0019371983
102	0xbb7b3c27	-0.0038335414
103	0xbc4468da	-0.011987889
104	0x3a13406c	0.00056172046
105	0xbc459c4e	-0.012061192
106	0xbc864770	-0.016391486
107	0xbc39e8cb	-0.011347006
108	0xbc926a5d	-0.017872984
109	0xbc5d3426	-0.013501203
110	0x3c8a49d8	0.016880915
111	0x3abe5c56	0.0014523368
112	0x3b7a3b07	0.0038182156
113	0xbc9a1c5e	-0.018812355
114	0xbc5d12d4	-0.0134932585
115	0xbbdbfe39	-0.0067136553
116	0x3b59ed1d	0.0033252903
117	0xbc80a7c3	-0.015704995
118	0xbc0d7fd2	-0.008636432
119	0xbc3a2239	-0.011360698
120	0x3a8254c2	0.0009943473
121	0xbbcb4b3a	-0.006204036
122	0xb9ecbdc4	-0.00045154814
123	0xbc33d4e5	-0.010976051
124	0xbc30ce90	-0.010791436
125	0xbc01520e	-0.0078930985
126	0xbb57342c	-0.0032837493
127	0xbc4386e7	-0.011934019
128	0x3cb198e3	0.021679347
129	0x3ad1b18e	0.001599835
130	0x3c98c4a0	0.018648446
131	0x3c0a8380	0.008454204
132	0xbc65968e	-0.014012946
133	0x3c3c94fe	0.011510132
134	0xbbd7bc13	-0.0065836995
135	0xbc003342	-0.007824721
136	0xbc7a219e	-0.015266804
137	0xbc8cf005	-0.017204294
138	0x3bb59993	0.005541989
139	0xbba029cf	-0.0048877965
140	0x3bd080d7	0.006363015
141	0xbc7f26f6	-0.015573254
142	0x3c4a8a6c	0.012362104
143	0xbc809e8d	-0.015700603
144	0xbb9e02dd	-0.0048221187
145	0x3b21b3d0	0.0024673827
146	0x3c06224a	0.008186886
147	0x3c4fa5f6	0.0126738455
148	0x3c791fc6	0.015205329
149	0xbc6e90c9	-0.014560887
150	0x3b6bea53	0.0035997822
151	0xbc104aa0	-0.0088068545
152	0xbadd941e	-0.0016905104
153	0xbc4bc84c	-0.012437891
154	0x3c8ee2ec	0.01744219
155	0xbc43aca5	-0.011943017
156	0x3c43448e	0.0119182
157	0x3c1398ce	0.009008599
158	0x3c1387e6	0.009004569
159	0xbbb55805	-0.0055341744
160	0x3caa2ce3	0.020773357
161	0x3bfb5e56	0.007671158
162	0x3b94d8d6	0.0045424504
163	0xbc6e0b5e	-0.014529077
164	0x3c0bdffa	0.008537287
165	0xbb8bda2d	-0.004267952
166	0xbc2b79bd	-0.010466036
167	0x3c67d0ba	0.014148885
168	0x3b6e7266	0.0036384105
169	0xbc1ff97d	-0.0097640725
170	0xbc1f6416	-0.009728452
171	0xbb38770f	-0.0028147136
172	0x3c2498d5	0.010046204
173	0xbb43b3d0	-0.0029861815
174	0xbc23134c	-0.009953331
175	0xbbe7113a	-0.007051614
176	0xbc7398e6	-0.014867997
177	0x3bc3fe0f	0.005981214
178	0x3c6147b4	0.0137500055
179	0xbc90abb7	-0.017660005
180	0x3b592854	0.003313561
181	0x3c1f0d66	0.009707784
182	0x3bb82d54	0.005620638
183	0xbb8b32d1	-0.004248001
184	0x3c37fe0f	0.011230006
185	0x3c439769	0.011937954
186	0x3c0cb211	0.008587376
187	0xbafdd6d0	-0.0019366387
188	0xbb4cf9cc	-0.003127682
189	0x3b2cc16e	0.002636041
190	0xbb094fde	-0.0020952146
191	0xbadcd789	-0.0016848902
192	0x3c761760	0.0150202215
193	0x3c93496f	0.017979352
194	0xba42d42c	-0.0007432129
195	0xbb8676f1	-0.0041035344
196	0xba18bb47	-0.00058262463
197	0xbb64327e	-0.0034820135
198	0x3aea16cb	0.0017859576
199	0x3b6501e1	0.0034943747
200	0xbc92136d	-0.017831529
201	0xbc0b7063	-0.008510682
202	0x3c52986a	0.012853721
203	0x3bbb6c05	0.005719664
204	0xbac5771e	-0.0015065407
205	0xbc264145	-0.010147397
206	0xbc2b4ff5	-0.010456075
207	0xbc88fb63	-0.016721433
208	0xbc051265	-0.008122061
209	0x3bb1b63e	0.0054233363
210	0x3c39b1b9	0.011333876
211	0x3bfe07bf	0.0077523883
212	0xbc8ab95e	-0.016934093
213	0xbc3ab04e	-0.011394573
214	0xba9ebb6a	-0.0012110297
215	0x3ca0bb4f	0.019620566
216	0x3b990107	0.004669312
217	0xbb4ba9b8	-0.0031076502
218	0x3c03c1a7	0.008041776
219	0xbbd2b9a7	-0.006430823
220	0xbc308268	-0.010773279
221	0x3c5471c0	0.012966573
222	0xbbffd7d6	-0.007807712
223	0x38bbca2e	8.954514e-05
224	0xbc57a276	-0.013161292
225	0x3c7af82d	0.015317959
226	0x3c67b3e0	0.014142007
227	0x3bce8a6b	0.006303122
228	0xbc576fec	-0.013149243
229	0xbc9494fb	-0.018137446
230	0xbc713e63	-0.014724347
231	0x3c5a0c3f	0.013308584
232	0x3c048636	0.008088639
233	0x3c78f233	0.015194464
234	0x3c1baf09	0.009502181
235	0x3b9df3cd	0.004820323
236	0xbac76e2c	-0.0015215329
237	0xbc68450c	-0.014176618
238	0xbc6906f0	-0.014222845
239	0xbc876e8f	-0.01653221
240	0x3bb1daad	0.0054276795
241	0xbc19be56	-0.0093837585
242	0xbabbd9a0	-0.0014331825
243	0xbc103275	-0.008801092
244	0xbb30cd4a	-0.002697783
245	0xbc543a80	-0.012953401
246	0xbc356811	-0.011072175
247	0x3bea23ba	0.007145372
248	0xbb8ef60b	-0.0043628267
249	0x3c3a52bf	0.011372267
250	0xbbb9f3ac	-0.0056748
251	0xbc4c8f34	-0.012485314
252	0xbad6cde7	-0.0016388268
253	0xbc0c0de9	-0.008548238
254	0xbba707f2	-0.0050973827
255	0xbc621e67	-0.013801194

bias f4 [32]
0	0x3c9c744f	0.019098429
1	0xbb8f32d7	-0.0043700743
2	0xbbc612e1	-0.006044731
3	0xbc067aca	-0.008207986
4	0x3a4c0290	0.0007782364
5	0x3c90e35f	0.017686544
6	0x3c88d94d	0.01670518
7	0x3ac586fa	0.0015070133
8	0xbc999463	-0.018747514
9	0x3b25a74c	0.0025276719
10	0xbc07e52b	-0.008294384
11	0xbc56ecf8	-0.013118021
12	0x3cfea1e0	0.031083047
13	0xbc7e9042	-0.015537323
14	0x3c3a0635	0.011354019
15	0xbc285a39	-0.010275417
16	0x3cd42c14	0.025899924
17	0x3c140961	0.009035439
18	0xbc2c4375	-0.01051413
19	0x3ca857d7	0.020549698
20	0x3a2eb6d7	0.00066648185
21	0x3c70b5da	0.014691794
22	0x3c4fc012	0.0126800705
23	0xbc8fce90	-0.017554551
24	0x3c71c210	0.014755741
25	0xbc8a900c	-0.01691439
26	0x3cb13788	0.021632925
27	0x3c1ca51f	0.009560852
28	0x3c95f17a	0.018303622
29	0x3b0910fb	0.0020914662
30	0xbc0b91f2	-0.008518683
31	0x3bda107f	0.0066547985

weight f4 [2, 32]
0	0xbdf4a195	-0.11944882
1	0x3d4a7d8e	0.049436145
2	0xbe02d9cb	-0.12778394
3	0x3dd4f754	0.103987366
4	0xbd38622f	-0.04501551
5	0x3e0e6f95	0.13909753
6	0xbdfe26fb	-0.12409779
7	0xbe207c81	-0.15672494
8	0x3ddaa168	0.10675317
9	0xbe47dfa2	-0.19518903
10	0x3dd9a00e	0.10626231
11	0x3e2e9642	0.17049506
12	0xbe1251fa	-0.14289084
13	0x3d0dbaae	0.03460186
14	0x3debc415	0.11512009
15	0x3df6e13c	0.12054679
16	0xbd9b83e7	-0.07593518
17	0x3df34eeb	0.11880287
18	0x3e33a421	0.17543079
19	0xbe1297fb	-0.14315788
20	0x3d0e95f9	0.034810994
21	0x3e23a09b	0.15979235
22	0xbdd41123	-0.10354831
23	0x3d40d40f	0.047077235
24	0x3d67c705	0.056586284
25	0xbc1b6d88	-0.0094865635
26	0xbdf9afd7	-0.12191742
27	0x3d409109	0.047013316
28	0xbde6d12f	-0.11270367
29	0xbdc0678c	-0.0939475
30	0x3d2161ad	0.03939979
31	0xbe1acc5b	-0.15117018
32	0x3e0e6569	0.13905872
33	0xbdd04d50	-0.10170996
34	0xbe311ace	-0.17295381
35	0xbe36bad3	-0.17844705
36	0xbd17076b	-0.03687231
37	0x3e35f61f	0.17769669
38	0xbe19d2f4	-0.15021878
39	0x3e33f391	0.17573382
40	0x3c876f44	0.016532548
41	0x3e19d2a8	0.15021765
42	0x3d2f254b	0.042760175
43	0xbe0d2d4b	-0.13786809
44	0x3e37a09c	0.17932361
45	0x3d7bf0e7	0.06150904
46	0xbde15833	-0.11003151
47	0x3cbf1351	0.02332464
48	0x3e5048ad	0.20340224
49	0xbe179a1d	-0.14804883
50	0xbe0b077b	-0.13577072
51	0x3d7ed625	0.062215943
52	0x3c3b59f5	0.011435022
53	0x3cf390bc	0.0297321
54	0xbe1d5e5e	-0.1536803
55	0xbe27a770	-0.16372466
56	0xbd82da81	-0.063893326
57	0xbe0093e1	-0.12556411
58	0x3e1148b8	0.14187896
59	0xbde5f39c	-0.112281054
60	0xbde0c74b	-0.10975512
61	0xbd500cbe	-0.050793402
62	0x3dbf3572	0.09336366
63	0x3d9b74b3	0.07590618

bias f4 [2]
0	0xbba202f4	-0.0049441997
1	0xbd77906e	-0.060440473
